onnxnet.onnx (onnx, 42311 bytes, 7 tensors)

fc_1_MatMul_W f4 [21, 81]
0	0xbdca424e	-0.09875928
1	0x3e8e57fc	0.27801502
2	0xbe530ca1	-0.20610286
3	0x3b62d58b	0.0034612145
4	0x3dd0776d	0.10179029
5	0x3ecc68d6	0.39923733
6	0x3e1a9439	0.15095605
7	0xbcbeb847	-0.02328123
8	0xbe45fc33	-0.19334488
9	0xba18e472	-0.0005832381
10	0xbdc011b4	-0.093783766
11	0xbee34f63	-0.44396505
12	0xbdf1adb1	-0.11800707
13	0x3e9a23c2	0.30105406
14	0x3e8ca757	0.2747142
15	0x3e4fe25f	0.20301197
16	0xbe946eac	-0.28990686
17	0xbde2a671	-0.110669024
18	0x3e5f38b0	0.21798968
19	0xbe87221f	-0.2639322
20	0xbe9e941a	-0.30972368
21	0x3e26373c	0.16232008
22	0xbea9b654	-0.33146918
23	0x3e195ac8	0.14976037
24	0xbe9adcf4	-0.302467
25	0x3dd43d92	0.10363306
26	0xbe1e91db	-0.15485327
27	0xbe86aedd	-0.26305285
28	0x3c9de279	0.01927303
29	0x3e01dd54	0.12682086
30	0x3e81087f	0.25201795
31	0x3eca01db	0.3945454
32	0xbd8c2208	-0.068424284
33	0xbe59db8a	-0.21275154
34	0x3e4df73b	0.20113842
35	0x3db5df8a	0.08880527
36	0x3e739bc6	0.23789892
37	0x3d167c79	0.0367398
38	0xbd4c6d38	-0.049908847
39	0x3d5ad3aa	0.053424515
40	0xbe66b9d7	-0.2253183
41	0x3e9ac639	0.30229357
42	0x3e07a36e	0.13245937
43	0xbc7b8f69	-0.015354016
44	0xbe1ded35	-0.15422519
45	0xbd94a098	-0.07257193
46	0xbe99aad7	-0.30013153
47	0x3e532014	0.20617706
48	0xbe913f6e	-0.28368706
49	0x3d3bfa8e	0.045893244
50	0x3e125513	0.14290266
51	0x3cc1053d	0.023562068
52	0xbde39b57	-0.11113613
53	0xbe20f970	-0.15720153
54	0xbec1132c	-0.3770994
55	0xbe15765d	-0.14595933
56	0xbd22e77b	-0.03977154
57	0x3e576feb	0.21038787
58	0x3e624bc3	0.22099213
59	0x3e5a0702	0.21291736
60	0xbdc98788	-0.09840304
61	0xbe9f7755	-0.3114573
62	0xbccc82bd	-0.024964685
63	0x3d015c17	0.031581964
64	0xbe5f2bc7	-0.21794043
65	0x3e4d4f03	0.20049672
66	0xbbdb5225	-0.006693142
67	0xbe143bfa	-0.14476004
68	0x3d839e24	0.06426647
69	0xbec2ab10	-0.38021135
70	0xbe1edce2	-0.15513948
71	0xbdd11620	-0.10209298
72	0xbe1a4b3e	-0.15067765
73	0x3e461492	0.19343784
74	0xbe4352d7	-0.1907457
75	0xbcff6800	-0.03117752
76	0xbccb9fba	-0.024856437
77	0x3da7aa1a	0.08186741
78	0x3e10dce9	0.1414677
79	0x3e85dd50	0.2614541
80	0xbc30fd65	-0.010802601
81	0xbdb1a016	-0.08673112
82	0xbddd315b	-0.108004294
83	0xbebad9c8	-0.3649428
84	0xbc8cbb48	-0.017179146
85	0xbeb150d1	-0.3463197
86	0x3eddad31	0.43296197
87	0xbe34df0a	-0.17663208
88	0xbe7e7275	-0.2484835
89	0xbd8cc22c	-0.06872973
90	0xbe83f299	-0.25771025
91	0xbd9acb0d	-0.0755826
92	0xbcf80207	-0.030274404
93	0xbda05ae7	-0.07829838
94	0xbdf84ca3	-0.12123992
95	0x3e4e1b71	0.20127656
96	0xbe19e8ec	-0.15030259
97	0xbe341777	-0.17587076
98	0xbe37014c	-0.17871588
99	0xbdfecc60	-0.12441325
100	0xbc3cf986	-0.0115341
101	0x3d9d43f4	0.07678977
102	0x3e8a9dd0	0.27073526
103	0xbeb44ff7	-0.35217258
104	0x3e4b790f	0.19870399
105	0xbe5f2eb8	-0.21795166
106	0x3defaa83	0.117024444
107	0xbe4f851b	-0.2026562
108	0xbdf43a5d	-0.119251944
109	0xbbab7e3a	-0.0052335532
110	0x3e52404a	0.20532337
111	0x3e90ba30	0.2826705
112	0x3eccaeee	0.3997721
113	0x3d186784	0.037208095
114	0xbb8ead2d	-0.0043541403
115	0x3e19d387	0.15022098
116	0xbe206a79	-0.15665616
117	0xbdd5ad66	-0.10433464
118	0x3eb0bfd3	0.3452135
119	0x3b7294f5	0.0037015055
120	0x3d64d228	0.055864483
121	0xbd2fb200	-0.042894363
122	0x3e1ce2c2	0.15320876
123	0x3e59d28c	0.21271724
124	0x3e1abb00	0.15110397
125	0xbe4e5d84	-0.20152861
126	0xbcd5bd60	-0.026091278
127	0xbeb9d023	-0.36291608
128	0xbe45929e	-0.19294211
129	0x3cb0b1a9	0.02156909
130	0xbd9b7696	-0.07590978
131	0xbe22b7c6	-0.15890417
132	0x3e7fc866	0.2497879
133	0xbde440f8	-0.11145204
134	0xbd9dc196	-0.07702939
135	0xbe54637d	-0.20741077
136	0x3dc0a471	0.09406365
137	0xbda5c667	-0.08094483
138	0xbe11afe5	-0.14227255
139	0x3e5dac50	0.21647763
140	0x3e4b86cf	0.19875644
141	0xbdd21a95	-0.10258976
142	0xbd44908c	-0.047989413
143	0xbdd0c3d9	-0.10193605
144	0x3ecaf723	0.39641675
145	0x3ddbb9e5	0.10728816
146	0xbdfa0e84	-0.122098
147	0x3e43dfb6	0.19128308
148	0x3dd28293	0.10278811
149	0x3e9b43da	0.30325204
150	0xbe970f93	-0.2950407
151	0x3d5d1848	0.053978235
152	0xbbc5a047	-0.0060310694
153	0xbd507997	-0.050897207
154	0xbdef9e9d	-0.11700175
155	0xbdd29126	-0.10281591
156	0x3e550b7f	0.20805167
157	0x3dba1cce	0.09087525
158	0xbe2ffe0a	-0.17186752
159	0xbdf45b55	-0.11931483
160	0x3d9ac333	0.075567625
161	0xbe3337c8	-0.17501748
162	0x3e043333	0.12910156
163	0x3c307bc7	0.010771698
164	0xbda02c04	-0.07820895
165	0x3eabb158	0.3353374
166	0xbe97d1ad	-0.29652157
167	0x3e2966b5	0.16543086
168	0xbe55eed1	-0.20891882
169	0xbe992f72	-0.2991901
170	0x3e4103e0	0.18849134
171	0x3de80f02	0.113309875
172	0xbe2696a3	-0.16268401
173	0xbe86641e	-0.26248258
174	0xbe9194a0	-0.28433704
175	0x3de122b4	0.10992947
176	0xbdcd514a	-0.1002527
177	0x3df836db	0.12119838
178	0xbde08fc0	-0.10964918
179	0xbc71f751	-0.0147684375
180	0xbd42bcbc	-0.047543272
181	0xbd9f5e01	-0.07781602
182	0xbeaf0454	-0.3418299
183	0x3d163606	0.036672615
184	0x3cf7bfa9	0.030242758
185	0xbd813608	-0.06309134
186	0xbea39806	-0.31951922
187	0xbdbc447a	-0.09192748
188	0xbe5c25ea	-0.21498838
189	0x3d45fe59	0.048338268
190	0xbe17a792	-0.14810017
191	0x3e8b55d0	0.27213907
192	0x3de11de1	0.10992027
193	0x3e1d1724	0.15340859
194	0xbe15feba	-0.14647952
195	0xbe41e3be	-0.18934533
196	0x3eb3eb17	0.35140297
197	0xbc8b5f26	-0.017013144
198	0xbd9bd673	-0.07609262
199	0x3eaa3116	0.33240575
200	0x3d2c1397	0.04201087
201	0xbd3b7558	-0.045766205
202	0xbd18d940	-0.03731656
203	0x3e09152d	0.13386984
204	0x3e29c043	0.16577248
205	0x3e9fdbdf	0.31222436
206	0xbcef611d	-0.029221112
207	0xbe9c0014	-0.3046881
208	0x3cb8804d	0.022522116
209	0xbd6e5287	-0.058184173
210	0xbe82a581	-0.25516894
211	0xbe0c250e	-0.1368601
212	0xbd8329d3	-0.06404462
213	0x3e0a998c	0.13535136
214	0xbd7e98a5	-0.062157292
215	0x3c3c3544	0.011487309
216	0x3d047665	0.032339472
217	0x3c3c8ae4	0.0115077235
218	0xbd385656	-0.04500421
219	0x3e7a3703	0.24435048
220	0x3ea61f49	0.32445744
221	0xbd9d0d77	-0.07668584
222	0x3dd42c55	0.10360018
223	0xbe9d39dd	-0.3070821
224	0x3e11a5e5	0.1422344
225	0x3ec4c4f5	0.38431516
226	0x3d13405c	0.03595005
227	0x3e5e2dd2	0.21697167
228	0xbd42aa90	-0.047525942
229	0xbe794b87	-0.24345218
230	0x3e951b92	0.29122597
231	0xbd4c695f	-0.049905177
232	0x3df1b7a0	0.11802602
233	0xbe9c91c1	-0.3057995
234	0xbe397d0a	-0.18114105
235	0xbd2126d1	-0.03934366
236	0x3dd22d1b	0.102625094
237	0x3eb1466a	0.34624034
238	0xbd891537	-0.066934995
239	0x3c2b072f	0.010438724
240	0x3e030c81	0.12797739
241	0x3e97006a	0.29492503
242	0xbde9805d	-0.114014365
243	0xbde51ad9	-0.111867614
244	0x3e0b1129	0.13580765
245	0xbe9dc6d9	-0.3081577
246	0x3e5ca926	0.215489
247	0xbe6569c7	-0.22403632
248	0x3eb8b801	0.36077884
249	0x3e3e51f3	0.18585949
250	0xbeb3b80c	-0.35101354
251	0xbe838a6e	-0.2569155
252	0x3d9065fe	0.070507035
253	0xbdaa1670	-0.08305061
254	0xbdaf78c1	-0.08567954
255	0xbecf2d51	-0.4046426

fc_1_Add_B f4 [81]
0	0xbd7f2150	-0.06228763
1	0x3e8257a6	0.25457495
2	0xbecfa4c6	-0.405554
3	0x3eafb542	0.34317976
4	0xbea39baa	-0.319547
5	0x3f151278	0.58231306
6	0xbd0edbdc	-0.034877643
7	0xbf090cdf	-0.53535265
8	0xbe2275bb	-0.15865223
9	0xbe3f162f	-0.18660806
10	0xbcb7485b	-0.022373369
11	0xbeff5c8c	-0.49875295
12	0xbf0371d6	-0.51345575
13	0x3e88343e	0.26602358
14	0x3e3b282f	0.18277048
15	0x3d1ff6db	0.03905378
16	0xbf091572	-0.5354835
17	0xbe8b7b5e	-0.2724256
18	0x3e020fea	0.12701383
19	0xbf1458ff	-0.579483
20	0xbeca0e9d	-0.39464274
21	0x3cae4962	0.021275226
22	0xbebb390c	-0.3656696
23	0x3e186176	0.14880928
24	0xbe906e44	-0.28209126
25	0x3dedb024	0.11605862
26	0xbecac6b6	-0.3960473
27	0xbe1eb764	-0.15499645
28	0xbeca6cd7	-0.39536163
29	0x3e6f76a9	0.23385109
30	0x3ea05dd0	0.31321573
31	0x3ecea3cc	0.40359342
32	0x3db78c4e	0.08962308
33	0x3d095b59	0.03353438
34	0x3ebcbcd7	0.36862823
35	0xbe7450aa	-0.23858896
36	0x3d222cdd	0.039593566
37	0x3f1695dc	0.5882242
38	0xbeaedf7d	-0.34154883
39	0x3d6209ac	0.055185005
40	0xbf0f21df	-0.5591106
41	0x3efba241	0.49147227
42	0x3e8a959c	0.27067268
43	0x3e9c6e41	0.30552867
44	0xbf16ff6e	-0.58983505
45	0xbe937995	-0.28803697
46	0xbf0e9d65	-0.55708915
47	0xbcbfe88d	-0.023426319
48	0xbe996108	-0.2995684
49	0xbe543ed2	-0.20727089
50	0xbe50a32c	-0.20374745
51	0x3ebc77da	0.3681019
52	0xbea471a3	-0.32117948
53	0xbed1844d	-0.4092125
54	0xbed6815a	-0.41895562
55	0x3e1b78a9	0.15182747
56	0x3e6bd3f9	0.2303008
57	0x3e6f2080	0.23352242
58	0x3ebaac0a	0.3645938
59	0x3e7e4753	0.24831896
60	0xbd7cbab7	-0.061701503
61	0xbee4f6ec	-0.44719636
62	0xbd3243b3	-0.043521594
63	0x3edf34f0	0.43595076
64	0xbca6a161	-0.020340623
65	0x3ddd4b3f	0.10805368
66	0x3e477701	0.1947899
67	0xbd578da4	-0.052625313
68	0x3ebea34e	0.37233967
69	0xbeb3a758	-0.3508861
70	0xbd9ab91c	-0.07554838
71	0xbe864687	-0.26225683
72	0xbe290a5b	-0.16507857
73	0xbe0707ca	-0.13186565
74	0xbc0f6913	-0.008753079
75	0x3ea5357c	0.32267368
76	0x3d9491cd	0.07254372
77	0x3dd504d7	0.10401314
78	0x3e940ce9	0.289161
79	0x3ea060e3	0.3132392
80	0xbe8c43b2	-0.27395397

fc_2_MatMul_W f4 [81, 100]
0	0x3dcf981f	0.10136437
1	0x3df2f68f	0.118634336
2	0x3d9a83db	0.07544681
3	0xbded404c	-0.11584529
4	0x3be2f6c1	0.006926388
5	0xbd5e7ef6	-0.054320298
6	0xbd8d269c	-0.0689213
7	0xbe1e75a2	-0.15474561
8	0x3d9d3b85	0.07677368
9	0xbe24b85d	-0.16085954
10	0x3d32dd15	0.04366787
11	0xbe027fcc	-0.12744063
12	0xbd4d2b54	-0.05009015
13	0xbd292ade	-0.041300647
14	0xbd898953	-0.06715646
15	0xbdffed15	-0.12496392
16	0x3d75d1f7	0.06001469
17	0x3df00c15	0.117210545
18	0x3e2c1871	0.16806199
19	0xbd21c9b8	-0.039499015
20	0xbdc6cb9f	-0.097068064
21	0xbda5d8c8	-0.08097988
22	0x3df0c6cf	0.1175667
23	0xbde8b05d	-0.113617636
24	0xbe0adce4	-0.13560826
25	0xbe2ca666	-0.16860351
26	0xbe1bdf28	-0.15221846
27	0xbd1005d3	-0.035161804
28	0xb92ec702	-0.0001666807
29	0x3ddf2801	0.10896302
30	0xbd95b2a4	-0.073094636
31	0x3e14a9e8	0.14517939
32	0xbdba2c1c	-0.090904444
33	0xbe16c991	-0.14725329
34	0x3e02189a	0.12704697
35	0xbe33a146	-0.1754199
36	0xbdb82c34	-0.08992806
37	0xbd4b9deb	-0.04971115
38	0xbdcd7348	-0.10031754
39	0xbe33ab34	-0.17545778
40	0x3b259970	0.0025268458
41	0x3e060f22	0.1309171
42	0x3d8be5cd	0.068309404
43	0x3dcae055	0.09906069
44	0xbd642fd6	-0.055709682
45	0x3dde45bd	0.10853145
46	0xbdaf5e14	-0.08562866
47	0xbe279233	-0.16364364
48	0xbe26ebcb	-0.16300885
49	0x3d5cb204	0.053880706
50	0xbd4a3818	-0.0493699
51	0x3db2d5ba	0.08732171
52	0xbb7fa016	-0.003900533
53	0xbd929ede	-0.07159208
54	0xbe2f6885	-0.17129715
55	0x3d261757	0.040549602
56	0xbd60422e	-0.054750614
57	0xbdcb229b	-0.0991871
58	0xbe02970a	-0.1275293
59	0x3e20daa8	0.1570841
60	0x3d64c65e	0.05585324
61	0x3e05b98f	0.13059066
62	0x3d9cda34	0.076588064
63	0x3cb6919e	0.022286233
64	0xbdb44c95	-0.08803669
65	0x3e2e353d	0.17012496
66	0xbdb47bbb	-0.08812662
67	0x3cc77d0a	0.024351615
68	0x3df52359	0.11969633
69	0x3da747e3	0.08168008
70	0x3e09b619	0.13448371
71	0x3d6a725f	0.05723798
72	0xbbe4619c	-0.0069696438
73	0x3e214c66	0.157518
74	0xbe3b4999	-0.18289794
75	0xbddc2ae6	-0.1075037
76	0x3d38a0bc	0.045075163
77	0xbde7eaea	-0.11324103
78	0xbe16efe9	-0.14739956
79	0x3df4695e	0.1193416
80	0xbe031972	-0.12802675
81	0x3cd3dd12	0.02586225
82	0xbdfe927b	-0.12430283
83	0x3db1cb73	0.08681383
84	0x3e360853	0.17776613
85	0xbe2f976e	-0.1714761
86	0x3e053504	0.13008505
87	0x3d04f206	0.032457374
88	0x3cd18743	0.025577193
89	0x3d8d1586	0.06888871
90	0x3e3c3f34	0.18383485
91	0x3e3fb060	0.18719625
92	0xbda1702e	-0.07882725
93	0x3db749d8	0.089496315
94	0xbe2fa021	-0.17150928
95	0x3d8a6867	0.067581944
96	0xbd7bf5d4	-0.061513737
97	0xbdc52654	-0.09626451
98	0x3dcab5b0	0.098979354
99	0xbd953b57	-0.07286709
100	0x3e32f656	0.17476782
101	0x3d381ab4	0.04494734
102	0x3cb279e6	0.021786641
103	0xbe39ce39	-0.18145074
104	0xbd39e229	-0.0453817
105	0x3dea2e60	0.114346266
106	0x3cc24235	0.02371321
107	0xbb531ded	-0.0032213882
108	0xbe352fc4	-0.17694002
109	0x3d2038a0	0.0391165
110	0xbe367d27	-0.1782118
111	0x3dbffcb1	0.09374369
112	0x3d9dc545	0.07703642
113	0xbcf8b5a8	-0.030360058
114	0x3d222794	0.039588526
115	0xbd0b8024	-0.03405775
116	0x3dfcab6e	0.12337385
117	0x3d64edcb	0.05589084
118	0x3d730414	0.05933006
119	0x3bb85bf4	0.005626196
120	0xbe006f59	-0.12542476
121	0x3e1c0832	0.15237501
122	0x3e529330	0.2056396
123	0x3c755ae8	0.014975287
124	0x3d310669	0.043219004
125	0x3dc37305	0.095434226
126	0x3e010994	0.1260131
127	0xbd756357	-0.05990919
128	0x3d6c3ba3	0.05767406
129	0xbc48b185	-0.012249355
130	0xbc9751bd	-0.018471593
131	0x3d391e16	0.045194708
132	0x3e65e81d	0.22451825
133	0xbe050ec2	-0.12993911
134	0x3e32d562	0.17464212
135	0x3d86fe6e	0.06591497
136	0x3e456457	0.19276558
137	0x3d651ef2	0.055937715
138	0xbe3408ac	-0.17581433
139	0x3d3a7b71	0.04552788
140	0x3de8dbdf	0.11370062
141	0x3deb9066	0.11502151
142	0xbc179a6c	-0.009253126
143	0x3d68b2f3	0.056811284
144	0x3dca978f	0.09892189
145	0xbd6f022d	-0.058351684
146	0x3e3653a2	0.17805341
147	0xbdf2c49b	-0.11853906
148	0x3d41254b	0.047154706
149	0x3d432b44	0.047648683
150	0xbd52a4ba	-0.051426627
151	0x3cf1c302	0.029511932
152	0x3ca6d6f0	0.020366162
153	0x3d42e733	0.04758377
154	0x3da19789	0.07890231
155	0x3d5d7625	0.05406775
156	0xbe2dbe0c	-0.16967028
157	0x3da808ab	0.08204778
158	0x3b27f040	0.0025625378
159	0x3cf95316	0.030435126
160	0x3d5b6394	0.053561762
161	0xbdd45183	-0.103671096
162	0xbdb402c6	-0.087895915
163	0x3bb9d3bd	0.005670993
164	0xbc805677	-0.01566623
165	0xbd33755d	-0.0438131
166	0x3dd51245	0.10403875
167	0xbe26d81b	-0.16293375
168	0x3cb1775d	0.021663362
169	0xbd88cc17	-0.06679552
170	0x3ca6e8ca	0.020374674
171	0xbd9385d6	-0.072032616
172	0x3e10e676	0.14150414
173	0x3d82f98e	0.06395255
174	0x3caf614a	0.021408696
175	0xbc761804	-0.015020374
176	0x3e181e08	0.14855206
177	0x3da8bb71	0.082388766
178	0xbe4b4c95	-0.19853432
179	0xbd5730c8	-0.052536756
180	0x3e1faf5d	0.1559424
181	0x3e043ac0	0.12913036
182	0xbd471354	-0.048602417
183	0x3e0bc797	0.13650356
184	0xbe36c618	-0.17849004
185	0x3dbe1a16	0.09282319
186	0xbe190270	-0.14942336
187	0xbde80394	-0.113288075
188	0x3d3927af	0.04520386
189	0x3d57d5ca	0.05269412
190	0x3e01b48e	0.12666532
191	0xbd819116	-0.06326501
192	0xbe587525	-0.21138437
193	0xbe4eddf9	-0.20201863
194	0xbd567dde	-0.05236613
195	0x3d933fbc	0.07189891
196	0xbd3c1e83	-0.045927536
197	0x3df29255	0.11844317
198	0xbe1dc13a	-0.15405741
199	0x3e0c9f64	0.13732678
200	0xbe1537fc	-0.14572138
201	0xbcfa2ea4	-0.030539818
202	0x3e2da5d0	0.16957784
203	0x3e4cf0bc	0.20013708
204	0xbbe7de59	-0.0070760665
205	0x3e2c5381	0.16828729
206	0xbe171cac	-0.14757031
207	0x3e25aa10	0.16178155
208	0xbd5513a1	-0.052020673
209	0xbe5ef553	-0.21773271
210	0xbd231469	-0.039814387
211	0xbe74a45a	-0.2389082
212	0x3e0b9eb3	0.13634758
213	0x3d15aa42	0.036539324
214	0xbd77994f	-0.06044894
215	0x3c8981c4	0.01678551
216	0x3e2bc81a	0.16775551
217	0x3e0bb669	0.13643803
218	0xbe821506	-0.25406665
219	0x3e3fe2cc	0.1873886
220	0x3e9cf001	0.30651858
221	0x3d9d2178	0.07672399
222	0xbe45c85f	-0.19314717
223	0xbe8003b8	-0.25002837
224	0xbdb6fa03	-0.08934405
225	0xbe043912	-0.12912396
226	0xbea0a2e6	-0.31374282
227	0x3e31a906	0.17349634
228	0xbe93dc3f	-0.28878972
229	0xbe62a554	-0.2213338
230	0x3d88d585	0.066813506
231	0x3dda16f2	0.10648908
232	0xbcdc63f5	-0.026903132
233	0xbe291d89	-0.16515173
234	0x3da352d5	0.07974783
235	0xbe92ea4a	-0.28694373
236	0x3d3bb97d	0.045831192
237	0xbddb2edf	-0.10702299
238	0x3d30c567	0.043157008
239	0x3df07ff3	0.117431544
240	0x3e787052	0.24261597
241	0xbe63b692	-0.22237614
242	0xbd0931fd	-0.03349494
243	0xbda8b4e2	-0.08237626
244	0x3e1c8a97	0.15287243
245	0x3e998637	0.2998521
246	0x3d652947	0.05594757
247	0x3ce4b973	0.02792046
248	0x3e8855d4	0.26627982
249	0xbdf53a4e	-0.11974011
250	0x3e20de1b	0.15709727
251	0xbe5af00f	-0.21380638
252	0xbe0afee1	-0.13573791
253	0x3c251216	0.010075113
254	0x3e21c426	0.15797481
255	0x3da7d157	0.08194225

fc_2_Add_B f4 [100]
0	0xbc0bda35	-0.008535911
1	0x3d740d36	0.05958291
2	0xbd67c6eb	-0.056586187
3	0xbe2cdef4	-0.16881925
4	0xbed5b2a1	-0.41737846
5	0xbeb3eb39	-0.35140398
6	0xbc619e16	-0.013770601
7	0xbdb2ef6f	-0.087370746
8	0xbe95f267	-0.292865
9	0x3e8b5270	0.27211332
10	0xbea9a1e7	-0.33131334
11	0x3e359e75	0.17736228
12	0xbec22b04	-0.37923443
13	0xbe5e1fb1	-0.21691777
14	0x3ddef707	0.108869605
15	0xbe941538	-0.2892244
16	0xbd459863	-0.04824103
17	0xbe3a4848	-0.18191636
18	0x3eacceff	0.33751675
19	0xbe997ec8	-0.2997954
20	0xbee06778	-0.4382894
21	0x3e7048b7	0.23465239
22	0x3ea42798	0.32061458
23	0x3e14d4a1	0.14534236
24	0x3aca5fcf	0.001543993
25	0x3ee40d7f	0.44541547
26	0x3e9df599	0.3085144
27	0xbe54f2be	-0.20795724
28	0x3edff3ff	0.43740842
29	0x3ead9eca	0.3391021
30	0x3e382fb8	0.17986953
31	0xbe41dc42	-0.18931678
32	0x3eae8feb	0.34094176
33	0x3e4ca991	0.1998656
34	0x3e3c8118	0.1840862
35	0x3eb9c371	0.36281922
36	0xbd9c7c33	-0.076408766
37	0x3d4f8320	0.05066216
38	0xbdd20e27	-0.102566056
39	0xbdc4d02f	-0.0961002
40	0xbe4cfbb4	-0.20017892
41	0x3dcc6f24	0.09982136
42	0xbd439ab6	-0.047754966
43	0x3dffad01	0.1248417
44	0xbedcf660	-0.4315672
45	0xbecb9a65	-0.3976623
46	0x3e456e50	0.19280362
47	0xbee6d267	-0.450824
48	0xbe289cd9	-0.16466083
49	0xbdad2168	-0.08453637
50	0xbeb8cc7c	-0.3609351
51	0x3e04459a	0.12917176
52	0x3e30324a	0.17206684
53	0x3e86dee2	0.2634192
54	0xbcd2cf85	-0.025733719
55	0xbe476e57	-0.19475685
56	0xbec72dfb	-0.38902268
57	0x3eba4edb	0.36388287
58	0xbe6c368e	-0.23067686
59	0xbe2eec9f	-0.17082451
60	0x3ca957bd	0.02067172
61	0xbeb96aef	-0.36214396
62	0xbd5849f9	-0.05280492
63	0x3ee03007	0.43786642
64	0xbeac9d73	-0.33713874
65	0x3ec368ae	0.38165802
66	0xbe67fa89	-0.22654165
67	0xbce03348	-0.027368203
68	0x3e8bcddf	0.27305505
69	0xbe2aa894	-0.1666587
70	0xbe1fe036	-0.15612873
71	0xbe27ea51	-0.16397978
72	0xbd2a0444	-0.041507974
73	0xbea3c331	-0.31984857
74	0x3e0ff048	0.14056504
75	0x3e51b6e1	0.20479919
76	0x3eb24a5d	0.3482236
77	0xbea9c50d	-0.3315815
78	0xbe3ad623	-0.18245749
79	0x3e572160	0.21008825
80	0x3df00d33	0.117212676
81	0x3e86b312	0.26308495
82	0xbe91742b	-0.28408942
83	0x3e2bcc7f	0.16777228
84	0xbe452b41	-0.19254781
85	0x3e87224a	0.26393348
86	0xbe859019	-0.260865
87	0x3d38df1a	0.04513464
88	0x3ed9da19	0.42549208
89	0xbe6090bd	-0.21930213
90	0xbe9537c9	-0.29144123
91	0xbe489f15	-0.19591935
92	0xbef20676	-0.47270554
93	0xbe612812	-0.21987942
94	0x3ee42438	0.44558883
95	0x3e98052a	0.2969144
96	0xbdecb406	-0.11557774
97	0x3e8709ba	0.26374608
98	0xbe86f1ce	-0.26356357
99	0x3ed692cd	0.41908875

Weights_MatMul_W f4 [100, 1]
0	0x3cc78b89	0.024358528
1	0xbdcc22f2	-0.09967603
2	0xbe0b955a	-0.13631192
3	0xbf0ee8db	-0.5582406
4	0xbf07d272	-0.5305549
5	0xbf3b501c	-0.7316911
6	0x3e21bc51	0.15794493
7	0xbe1e36e4	-0.15450627
8	0xbf190619	-0.5977493
9	0x3f53fe82	0.82810223
10	0xbf16aa2a	-0.588534
11	0x3ef84f62	0.48498064
12	0xbe80fe3e	-0.2519397
13	0xbe5e7c0b	-0.21727006
14	0xbe9ec362	-0.3100844
15	0xbf6068d3	-0.8765995
16	0xbdfbde88	-0.12298304
17	0xbefdd6d9	-0.49577978
18	0x3f046f54	0.51732373
19	0x3d2342d2	0.039858647
20	0xbe764eb8	-0.24053466
21	0x3eb1713f	0.34656712
22	0x3f34e0a6	0.70655286
23	0xbdeccee3	-0.11562898
24	0x3db217df	0.08695959
25	0x3f5083bf	0.8145103
26	0xbcd131f9	-0.025536524
27	0xbf03137f	-0.51201624
28	0x3f6eb92d	0.93251306
29	0x3f35a3e4	0.709532
30	0xbe0c4a5e	-0.13700244
31	0xbee207b4	-0.44146502
32	0x3f710006	0.9414066
33	0x3eb3dc0f	0.3512883
34	0x3ec5c632	0.38627774
35	0x3f0d65bd	0.55233365
36	0xbdb4c74c	-0.08827075
37	0x3eae2945	0.3401586
38	0x3e726cc6	0.23674306
39	0x3e0954c4	0.13411242
40	0xbe29b80b	-0.16574113
41	0xbdf7658e	-0.12079917
42	0xbdd06fd7	-0.10177582
43	0x3da49916	0.08037011
44	0xbf56df63	-0.8393461
45	0xbf5c36be	-0.8602103
46	0x3f4d3e39	0.8017307
47	0xbf4f9e42	-0.8110086
48	0xbeb93921	-0.36176398
49	0x3c227e60	0.009917825
50	0xbf3deb78	-0.7418742
51	0xbd31b2b9	-0.043383334
52	0xbe9a472c	-0.30132425
53	0xbe96b290	-0.29433107
54	0xbc782027	-0.0151443845
55	0x3c5b9769	0.013402798
56	0xbe5a433f	-0.21314715
57	0x3f4a6f18	0.79075766
58	0xbe1bd964	-0.15219647
59	0x3c7aa715	0.0152986245
60	0xbe7faa99	-0.24967422
61	0xbf0fdaa8	-0.5619302
62	0xbdf33525	-0.11875371
63	0x3f3f17a4	0.7464545
64	0xbf65f095	-0.89820224
65	0x3f219222	0.63113606
66	0x3e2da23b	0.16956417
67	0xbec9449d	-0.3931016
68	0x3e6dc7d6	0.23220763
69	0x3e041352	0.12897995
70	0xbdc3b9a7	-0.09556895
71	0xbe57418f	-0.21021102
72	0x3e548a6b	0.20755927
73	0xbf13ee93	-0.5778591
74	0x3e032a62	0.12809137
75	0x3e323b5e	0.1740546
76	0x3f0ac561	0.54207426
77	0xbf246db3	-0.6422989
78	0xbf02948a	-0.510079
79	0x3f3ca706	0.7369236
80	0x3e50e9ae	0.20401642
81	0x3e92781e	0.28607267
82	0x3e92d83c	0.286806
83	0x3ef86e13	0.4852148
84	0xbf67a17e	-0.9048079
85	0x3e9cd332	0.3062988
86	0xbedba548	-0.42899537
87	0xbde90669	-0.11378176
88	0x3f23cb8a	0.6398245
89	0x3ee2e333	0.44313964
90	0xbdedd887	-0.11613565
91	0xbf220757	-0.6329245
92	0xbf302812	-0.6881114
93	0xbe8bf7d2	-0.2733751
94	0x3f5141a0	0.8174076
95	0x3dc0ce4f	0.0941435
96	0xbe6cb14e	-0.23114511
97	0x3f0163c3	0.5054285
98	0xbf28c6ce	-0.6592835
99	0x3f22f17e	0.6364974

Width_MatMul_W f4 [100, 1]
0	0x3e804f58	0.25060534
1	0xbe7b84cc	-0.24562377
2	0x3dfa7eff	0.12231254
3	0xbf19e344	-0.60112405
4	0xbef7fc7d	-0.4843482
5	0xbf263034	-0.649173
6	0x3d66e0f7	0.056366887
7	0xbe6608bb	-0.22464268
8	0xbf0cb02e	-0.5495633
9	0x3f7d1044	0.98852944
10	0xbf22e805	-0.63635284
11	0x3f373dd5	0.71578723
12	0xbe046448	-0.1292888
13	0xbe91a339	-0.28444842
14	0xbd6e9dc4	-0.058255926
15	0xbf7a6548	-0.9781079
16	0x3e1b2937	0.15152441
17	0xbf1f18b7	-0.62147087
18	0x3f38b97f	0.72158045
19	0x3cdde0b8	0.027084693
20	0xbe62a2f5	-0.22132476
21	0x3dff514c	0.12466678
22	0x3f4cd4f1	0.8001242
23	0x3de09024	0.10964993
24	0xbe575bb5	-0.21031077
25	0x3f46d0c7	0.7766232
26	0x3ea2b8a1	0.31781486
27	0xbf0d62c9	-0.5522886
28	0x3f7fbb5d	0.9989527
29	0x3f2ba8f4	0.67054677
30	0x3ce824cc	0.028337859
31	0xbeaa57d9	-0.33270147
32	0x3f223e2f	0.63376135
33	0x3e817103	0.25281534
34	0x3d817106	0.06320386
35	0x3f283b69	0.6571565
36	0x3e90d0d9	0.28284338
37	0x3d97d782	0.07414152
38	0xbc8899db	-0.016674927
39	0x3e221352	0.15827683
40	0xbe86b4e5	-0.26309887
41	0xbe3e3a14	-0.18576843
42	0x3c6407d0	0.013917878
43	0xbe91e8ab	-0.28497824
44	0xbf611916	-0.87928903
45	0xbf2d1c85	-0.6762164
46	0x3eefbc9a	0.4682358
47	0xbf52c881	-0.82337195
48	0xbe23b801	-0.1598816
49	0xbc304944	-0.010759655
50	0xbf4287d1	-0.7598849
51	0x3e4be135	0.19910128
52	0xbe8897f5	-0.26678434
53	0xbeb1a78c	-0.3469814
54	0x3cf880bd	0.030334825
55	0x3ec327d6	0.3811633
56	0xbdd0cfb9	-0.1019587
57	0x3f441c90	0.7660608
58	0xbf007f7a	-0.50194514
59	0xbe9b9516	-0.3038718
60	0x3d7fb54e	0.062428765
61	0xbf29cfcc	-0.663327
62	0x3e75def4	0.24010831
63	0x3f44fa82	0.76944745
64	0xbf691902	-0.91053784
65	0x3eb478ec	0.35248506
66	0xbd5eed84	-0.05442573
67	0xbe967d16	-0.29392308
68	0x3e50d2b5	0.20392878
69	0x3ed0377e	0.40667337
70	0x3d42624d	0.04745703
71	0xbec85b3d	-0.3913211
72	0xbc69a8d9	-0.014261448
73	0xbf35ea75	-0.7106088
74	0x3e883631	0.26603845
75	0xbdf154e8	-0.11783773
76	0x3efa34a4	0.48868287
77	0xbef0bead	-0.47020474
78	0xbebe64b5	-0.37186208
79	0x3e854ecf	0.2603669
80	0x3edf6033	0.43628082
81	0x3e37ecd2	0.17961434
82	0x3eae89d7	0.34089538
83	0x3f1ac92c	0.60463214
84	0xbf0a0480	-0.53913116
85	0x3f069714	0.52574277
86	0xbd094d89	-0.03352121
87	0x3e9798dd	0.29608813
88	0x3f0c7456	0.54865015
89	0x3e7f35e5	0.24922903
90	0xbee3ce74	-0.4449345
91	0xbf4ba021	-0.7954121
92	0xbf2804e2	-0.6563245
93	0xbf007856	-0.5018362
94	0x3f6f08e1	0.93372923
95	0x3cc09bc1	0.02351177
96	0xbf11a96c	-0.5689914
97	0x3f37813a	0.7168156
98	0xbebc92a1	-0.3683062
99	0x3f2ad5fa	0.6673275

Strength_MatMul_W f4 [100, 1]
0	0xbd94690c	-0.072465986
1	0x3e364faf	0.17803834
2	0xbc6774ff	-0.014127015
3	0x3e185f91	0.14880206
4	0xbd9c5798	-0.07633895
5	0xbc9d23b0	-0.019182056
6	0xbe49b307	-0.196972
7	0xbe1c8c96	-0.15288004
8	0xbe5a105d	-0.21295305
9	0xbe29db96	-0.16587672
10	0xbe415182	-0.18878749
11	0xbdaaa831	-0.08332861
12	0x3ddaa476	0.106759
13	0x3e4b72a1	0.19867946
14	0xbda968ce	-0.08271943
15	0xbe3cfe3f	-0.18456362
16	0xbe45b7e0	-0.19308424
17	0x3e02b284	0.12763411
18	0x3d610d99	0.05494461
19	0xbd179e16	-0.037015997
20	0xbdc5d178	-0.096590936
21	0x3e140b88	0.14457524
22	0xbc52d4dd	-0.012868133
23	0x3e37fb87	0.17967044
24	0xbe314cd8	-0.1731447
25	0xbe02864c	-0.12746543
26	0x3e79ecfc	0.24406809
27	0xbd61e6d0	-0.05515176
28	0xbe1b9d32	-0.15196684
29	0xbe2da093	-0.16955785
30	0xbcd21a82	-0.025647406
31	0x3e446514	0.19179183
32	0x3e1dffc4	0.15429598
33	0xbe0ee126	-0.13953075
34	0xbe1f7091	-0.15570284
35	0x3e73b227	0.23798428
36	0xbdd4397f	-0.10362529
37	0x3e2c44e6	0.16823158
38	0x3e7eec51	0.24894835
39	0x3ce12c40	0.02748692
40	0x3e606789	0.21914496
41	0x3e5ae5c7	0.21376716
42	0xbd658989	-0.056039367
43	0x3e520102	0.20508197
44	0xbe3933db	-0.18086188
45	0x3cad4e0f	0.021155385
46	0x3d8aee57	0.06783741
47	0xbe1f9c65	-0.15587004
48	0xbe7a426e	-0.24439403
49	0x3e4b5c50	0.19859433
50	0x3d050d05	0.03248312
51	0xbd1229c6	-0.03568437
52	0xbb1b31e5	-0.0023680863
53	0xbe3bfd06	-0.1835824
54	0xbc8fc28b	-0.01754882
55	0x3d22ce25	0.039747376
56	0x3d017a17	0.031610575
57	0x3e68dd0f	0.22740577
58	0xbc7deed8	-0.015498839
59	0x3db51332	0.08841552
60	0x3e28a5a4	0.16469437
61	0xbe035a06	-0.1282731
62	0xbe34fe30	-0.1767509
63	0xbdfad2ef	-0.12247264
64	0x3e33d326	0.17561015
65	0x3d6fc476	0.05853697
66	0x3e17e998	0.14835203
67	0xbd31fa59	-0.04345164
68	0xbd115976	-0.035485707
69	0xbe051fc3	-0.13000397
70	0xba023f13	-0.0004968505
71	0x3e04b161	0.1295829
72	0xbd8b6656	-0.068066284
73	0xbd4eb49a	-0.050465204
74	0xbd3d8bee	-0.046276025
75	0x3e1b729f	0.15180443
76	0x3e20878c	0.15676707
77	0x3ce4685d	0.027881796
78	0x3c231af9	0.009955161
79	0x3e4c40b7	0.19946562
80	0xbe334cd0	-0.1750977
81	0xbd518d5f	-0.051160213
82	0x3e798e7c	0.2437076
83	0x3d04b337	0.032397475
84	0xbdd138a6	-0.10215883
85	0xbdaab219	-0.08334751
86	0xbe4bd055	-0.19903691
87	0xbe5da24c	-0.21643943
88	0xbe015cf9	-0.12633123
89	0x3d627cc3	0.055294763
90	0xbe3062ca	-0.17225185
91	0x3df8bba2	0.12145163
92	0xbe320b7b	-0.17387192
93	0x3dda7faf	0.10668885
94	0x3e797029	0.24359192
95	0xbda4c042	-0.08044483
96	0xbe7bc35b	-0.24586241
97	0x3e82e8fa	0.25568372
98	0xbe8cc99b	-0.27497563
99	0x3df234b2	0.11826457
